…
    Dropout(0.2),
    Dense(32, activation='relu'),
    Dropout(0.2),
    Dense(num_classes, activation='softmax') 
])

optimizer = Adam(learning_rate=0.0001)
model.compile(optimizer='adam', loss='sparse_categorical_crossentropy', metrics=['accuracy'])
model.summary()



Model: "sequential"

┏━━━━━━━━━━━━━━━━━━━━━━━━━━━━━━━━━━━━━━┳━━━━━━━━━━━━━━━━━━━━━━━━━━━━━┳━━━━━━━━━━━━━━━━━┓
┃ Layer (type)                         ┃ Output Shape                ┃         Param # ┃
┡━━━━━━━━━━━━━━━━━━━━━━━━━━━━━━━━━━━━━━╇━━━━━━━━━━━━━━━━━━━━━━━━━━━━━╇━━━━━━━━━━━━━━━━━┩
│ dense (Dense)                        │ (None, 256)                 │          77,056 │
├──────────────────────────────────────┼─────────────────────────────┼─────────────────┤
│ dropout (Dropout)                    │ (None, 256)                 │               0 │
├──────────────────────────────────────┼─────────────────────────────┼─────────────────┤
│ dense_1 (Dense)                      │ (None, 128)                 │          32,896 │
├──────────────────────────────────────┼─────────────────────────────┼─────────────────┤
│ dropout_1 (Dropout)                  │ (None, 128)                 │               0 │
├──────────────────────────────────────┼─────────────────────────────┼─────────────────┤
│ dense_2 (Dense)                      │ (None, 64)                  │           8,256 │
├──────────────────────────────────────┼─────────────────────────────┼─────────────────┤
│ dropout_2 (Dropout)                  │ (None, 64)                  │               0 │
├──────────────────────────────────────┼─────────────────────────────┼─────────────────┤
│ dense_3 (Dense)                      │ (None, 32)                  │           2,080 │
├──────────────────────────────────────┼─────────────────────────────┼─────────────────┤
│ dropout_3 (Dropout)                  │ (None, 32)                  │               0 │
├──────────────────────────────────────┼─────────────────────────────┼─────────────────┤
│ dense_4 (Dense)                      │ (None, 4)                   │             132 │
└──────────────────────────────────────┴─────────────────────────────┴─────────────────┘

 Total params: 120,420 (470.39 KB)

 Trainable params: 120,420 (470.39 KB)

 Non-trainable params: 0 (0.00 B)

# Add a timestep dimension: Each sample has 1 timestep of 300 features
X_train_w2v = X_train_w2v.reshape(X_train_w2v.shape[0], 1, X_train_w2v.shape[1])
X_val_w2v = X_val_w2v.reshape(X_val_w2v.shape[0], 1, X_val_w2v.shape[1])
…
    Bidirectional(LSTM(64, return_sequences=False)),
    Dropout(0.3),

    Dense(128, activation='relu'),
    Dropout(0.4),
    Dense(num_classes, activation='softmax')
])

model.compile(
    optimizer=Adam(learning_rate=0.0005),
    loss='sparse_categorical_crossentropy',
    metrics=['accuracy']
)

model.summary()


Model: "sequential_1"

┏━━━━━━━━━━━━━━━━━━━━━━━━━━━━━━━━━━━━━━┳━━━━━━━━━━━━━━━━━━━━━━━━━━━━━┳━━━━━━━━━━━━━━━━━┓
┃ Layer (type)                         ┃ Output Shape                ┃         Param # ┃
┡━━━━━━━━━━━━━━━━━━━━━━━━━━━━━━━━━━━━━━╇━━━━━━━━━━━━━━━━━━━━━━━━━━━━━╇━━━━━━━━━━━━━━━━━┩
│ bidirectional (Bidirectional)        │ (None, 1, 256)              │         439,296 │
├──────────────────────────────────────┼─────────────────────────────┼─────────────────┤
│ dropout_4 (Dropout)                  │ (None, 1, 256)              │               0 │
├──────────────────────────────────────┼─────────────────────────────┼─────────────────┤
│ batch_normalization                  │ (None, 1, 256)              │           1,024 │
│ (BatchNormalization)                 │                             │                 │
├──────────────────────────────────────┼─────────────────────────────┼─────────────────┤
│ bidirectional_1 (Bidirectional)      │ (None, 1, 256)              │         394,240 │
├──────────────────────────────────────┼─────────────────────────────┼─────────────────┤
│ dropout_5 (Dropout)                  │ (None, 1, 256)              │               0 │
├──────────────────────────────────────┼─────────────────────────────┼─────────────────┤
│ batch_normalization_1                │ (None, 1, 256)              │           1,024 │
│ (BatchNormalization)                 │                             │                 │
├──────────────────────────────────────┼─────────────────────────────┼─────────────────┤
│ bidirectional_2 (Bidirectional)      │ (None, 128)                 │         164,352 │
├──────────────────────────────────────┼─────────────────────────────┼─────────────────┤
│ dropout_6 (Dropout)                  │ (None, 128)                 │               0 │
├──────────────────────────────────────┼─────────────────────────────┼─────────────────┤
│ dense_5 (Dense)                      │ (None, 128)                 │          16,512 │
├──────────────────────────────────────┼─────────────────────────────┼─────────────────┤
│ dropout_7 (Dropout)                  │ (None, 128)                 │               0 │
├──────────────────────────────────────┼─────────────────────────────┼─────────────────┤
│ dense_6 (Dense)                      │ (None, 4)                   │             516 │
└──────────────────────────────────────┴─────────────────────────────┴─────────────────┘

 Total params: 1,016,964 (3.88 MB)

 Trainable params: 1,015,940 (3.88 MB)

 Non-trainable params: 1,024 (4.00 KB)


print(f"X_train_w2v shape: {X_train_w2v.shape}, y_train shape: {y_train.shape}")
print(f"X_val_w2v shape: {X_val_w2v.shape}, y_val shape: {y_val.shape}")




/* x_train_w2v shape: (59196, 1, 300), y_train shape: (59196,)
…
